frozen_lake_dql.pt (torch, 19792 bytes, 4 tensors)

fc1.weight f4 [64, 64]
-0.108312234 0.025524199 -0.09654972 0.16942096 0.031729337 -0.12079567 -0.1148805 -0.012211889
-0.06513299 0.05919953 -0.05158794 -0.07915451 -0.010192931 -0.09086892 0.032422725 -0.07233718
-0.023485318 0.034084007 0.097796105 0.049607158 -0.11104478 0.013586613 0.07225442 0.026304305
-0.046271145 -0.045967385 0.01658766 -0.117095515 -0.122333914 0.06666277 -0.07311194 0.22417276
0.06157118 0.009442031 0.05093255 0.010706112 0.03797495 0.10081522 0.005930412 0.024825674
-0.017868623 0.014660314 0.06567499 0.12315027 -0.0045567006 0.019982949 -0.12140608 -0.014903158
-0.10267134 -0.03250584 0.05038249 -0.11398977 0.08316921 0.08020383 -0.07505734 0.009188354
-0.013339713 -0.058961883 0.07568454 -0.08738658 -0.04380493 -0.027487025 -0.11359882 -0.026806056
0.047119778 -0.05891733 0.044906404 -0.05426406 -0.03965516 -0.07103311 0.06331445 0.129956
-0.11527475 -0.004549887 0.06074407 -0.10355384 -0.119323626 -0.018218517 0.037717085 -0.1120049
0.011397166 0.116479576 0.07437046 0.11790435 -0.0044660387 -0.116444044 0.06252479 -0.113269955
-0.012988642 0.0884602 0.0068002474 -0.11880177 0.028748455 -0.10488017 0.30112636 -0.13010012
-0.00020117704 -0.111570805 -0.074618466 0.09927794 0.08758058 -0.07134996 -0.11043166 -0.015730979
-0.10726611 -0.036122873 -0.027572557 -0.061032336 0.03801823 0.08844799 0.04937765 0.21786647
0.056242008 0.016374707 -0.06202345 -0.105184495 0.092764825 0.15937936 -0.027993888 0.19971894
-0.110240795 0.12867735 -0.037373405 -0.040288955 0.040360004 -0.09595255 0.03358188 -0.1035085
0.07804949 0.11237997 -0.043546308 -0.07040618 -0.10043128 -0.020426221 -0.060988735 -0.09115201
-0.06798805 -0.115290835 0.041305307 0.1513735 -0.05746287 0.059757315 -0.12075962 -0.06713271
-0.10444097 -0.09548071 -0.05988201 0.09093948 0.08937209 0.11699364 -0.01486515 -0.091915295
-0.043159775 -0.11431575 -0.04621021 0.06146702 -0.055167694 0.08710164 -0.030025704 0.048097927
-0.09871584 -0.08570223 0.18666883 -0.114506185 -0.0729306 -0.09459609 0.20475194 0.026927497
-0.061323613 0.03620246 -0.10077138 -0.066809006 0.08572154 -0.113233745 -0.00049063563 -0.040389933
0.045480672 -0.106958225 0.13510898 0.10500091 0.05024217 0.03227274 -0.057018027 -0.08835047
-0.070199385 0.029613204 0.08762945 0.043775097 -0.022025183 0.1351795 0.09915648 -0.09666625
0.07086284 -0.06468305 -0.1969477 -0.00073078973 -0.16315198 0.00067837274 0.02167763 -0.061175834
0.0049251476 -0.014323612 -0.06475551 -0.06508672 -0.041188195 -0.074326046 0.017719388 0.090186134
-0.100762516 0.021377558 -0.012559843 0.068945125 0.051175524 0.07688676 0.16395599 0.030032443
0.017952008 0.12509926 -0.05109048 0.029258344 -0.056615945 0.07549015 0.00261036 0.100803345
-0.02193254 0.03865835 -0.10552573 0.013619781 0.0028089657 0.121537425 0.19499268 0.23719864
-0.085823104 -0.07658237 0.07898894 -0.06615855 -0.18779926 -0.14202702 -0.07606807 -0.19315022
-0.023316259 -0.10943714 -0.14516555 -0.081972964 -0.043405652 -0.09067407 -0.0961947 0.16140622
-0.08134131 0.004797925 -0.045342844 -0.0768324 -0.056032415 0.09653611 0.040764492 -0.03220527
00000000: ced2 ddbd 2018 d13c dcbb c5bd b07c 2d3e
00000010: 9ff6 013d b863 f7bd 7846 ebbd 6014 48bc
00000020: 7264 85bd 357b 723d e04d 53bd c21b a2bd
00000030: 4000 27bc 7c19 babd b1cd 043d 8425 94bd
00000040: 4864 c0bc ac9b 0b3d 5349 c83d e030 4b3d
00000050: 726b e3bd 639a 5e3c 20fa 933d 207c d73c
00000060: d086 3dbd 4c48 3cbd d8e2 873c c6cf efbd
00000070: 348a fabd 7e86 883d b6bb 95bd 8b8d 653e
00000080: 1032 7c3d c0b2 1a3c a69e 503d b068 2f3c
00000090: 9f8b 1b3d 3678 ce3d e753 c23b 365f cb3c
000000a0: 3861 92bc d031 703c 9c80 863d 3536 fc3d
000000b0: 6050 95bb 48b3 a33c c0a3 f8bd 602c 74bc
000000c0: 5a45 d2bd d824 05bd df5d 4e3d 7873 e9bd
000000d0: 9e54 aa3d e841 a43d aab7 99bd c08a 163c
000000e0: d08e 5abc 0482 71bd 7f00 9b3d bcf7 b2bd
000000f0: cc6c 33bd 782c e1bc 80a6 e8bd 6098 dbbc
00000100: ab00 413d 4c53 71bd c7ef 373d fe43 5ebd
00000110: 736d 22bd cf79 91bd 02ab 813d 3013 053e
00000120: 2b15 ecbd 3817 95bb c6ce 783d 0914 d4bd
00000130: f25f f4bd 003f 95bc 3b7d 1a3d d362 e5bd
00000140: 2ebb 3a3c d88c ee3d 8a4f 983d d677 f13d
00000150: d957 92bb 377a eebd ff0c 803d 14fa e7bd
00000160: 50ce 54bc 9f2a b53d 9cd4 de3b 584e f3bd
00000170: e181 eb3c 6acb d6bd 3c2d 9a3e f738 05be
00000180: 0df3 52b9 3c7f e4bd 91d1 98bd 3c52 cb3d
00000190: 725d b33d ee1f 92bd ff29 e2bd 41de 80bc
000001a0: 56ae dbbd 94f5 13bd d8df e1bc 0bfd 79bd
000001b0: 01b9 1b3d 3824 b53d 3840 4a3d 6318 5f3e
000001c0: 055e 663d 4024 863c 4d0c 7ebd f86a d7bd
000001d0: 7cfb bd3d 5834 233e 7053 e5bc 1f83 4c3e
000001e0: edc5 e1bd ffc3 033e db14 19bd 0806 25bd
000001f0: 8850 253d c582 c4bd 278d 093d 44fc d3bd
00000200: 69d8 9f3d 7827 e63d 9d5d 32bd 1e31 90bd
00000210: eaae cdbd e454 a7bc 53cf 79bd e8ad babd
00000220: 523d 8bbd 9a1d ecbd c12f 293d a801 1b3e
00000230: 305e 6bbd 16c4 743d d250 f7bd e07c 89bd
00000240: 26e5 d5bd 648b c3bd d746 75bd 7a3e ba3d
00000250: b708 b73d 5d9a ef3d f58c 73bc 163e bcbd
00000260: 4ec8 30bd 601e eabd eb46 3dbd d8c4 7b3d
00000270: 85f7 61bd 5862 b23d 77f8 f5bc 5502 453d
00000280: 882b cabd a784 afbd 1d26 3f3e 3882 eabd
00000290: a35c 95bd 98bb c1bd 7eaa 513e 0e97 dc3c
000002a0: 782e 7bbd 0849 143d 3a61 cebd 29d3 88bd
000002b0: c68e af3d 18e7 e7bd 009e 00ba ea6f 25bd
000002c0: f149 3a3d ea0c dbbd 025a 0a3e b80a d73d
000002d0: bcca 4d3d 6c30 043d bc8b 69bd 17f1 b4bd
000002e0: b2c4 8fbd 6497 f23c 1277 b33d 844d 333d
000002f0: 286e b4bc 7f6c 0a3e 8d12 cb3d f4f8 c5bd
00000300: 8920 913d 8c78 84bd a8ac 49be 7892 3fba
00000310: 5011 27be d3d4 313a 4995 b13c 8393 7abd
00000320: 2263 a13b 95ad 6abc 899e 84bd 304c 85bd
00000330: f4b4 28bd 4138 98bd 4028 913c 82b3 b83d
00000340: 945c cebd fd1f af3c cdc7 4dbc 1a33 8d3d
00000350: 6d9d 513d ce76 9d3d 14e4 273e 9906 f63c
00000360: 1710 933c 051a 003e 4044 51bd 32af ef3c
00000370: 1fe6 67bd 949a 9a3d 9312 2b3b fc71 ce3d
00000380: dfab b3bc 3858 1e3d e01d d8bd 8025 5f3c
00000390: a016 383b 9de8 f83d 29ac 473e 33e4 723e
000003a0: 06c4 afbd 38d7 9cbd f4c4 a13d 227e 87bd
000003b0: 734e 40be 886f 11be 94c9 9bbd 2cc9 45be
000003c0: bd01 bfbc 9420 e0bd 47a6 14be 71e1 a7bd
000003d0: 20ca 31bd 54b3 b9bd ba01 c5bd ac47 253e
000003e0: 4696 a6bd e937 9d3b 6bb9 39bd 4e5a 9dbd
000003f0: 3f82 65bd b9b4 c53d abf8 263d ace9 03bd

fc1.bias f4 [64]
-0.057635248 0.10672905 0.03531557 0.13922602 -0.03474541 0.16763099 0.16033794 -0.07317631
0.06556106 0.20404603 0.16551621 0.11662631 0.014283494 -0.020102626 0.035936847 0.17129576
0.047215506 0.19826142 -0.09947006 0.19507639 0.004273022 -0.04379731 -0.11269251 -0.10629413
-0.031768486 0.020094998 0.02590221 0.025322465 0.046736423 -0.07052345 -0.108458884 0.124145344
-0.0045991465 0.05140806 0.17119448 -0.002481397 0.010086539 -0.10293481 -0.013235381 -0.10789825
0.013885356 -0.090671234 0.05059389 0.018793855 0.22478165 -0.0647093 -0.050821226 -0.042759616
0.046729513 0.19706559 0.19387989 -0.041127738 0.027273096 -0.11078413 -0.060125858 0.070885524
-0.09146719 0.20566997 0.004470659 0.17733532 -0.13604482 -0.117582284 0.07576222 0.02949282
00000000: f012 6cbd c394 da3d 0fa7 103d 4491 0e3e
00000010: 3451 0ebd 75a7 2b3e a12f 243e 76dd 95bd
00000020: e144 863d 71f1 503e 157d 293e c6d9 ee3d
00000030: 5105 6a3c 43ae a4bc 8432 133d 2868 2f3e
00000040: 0c65 413d 0b05 4b3e f5b6 cbbd 1bc2 473e
00000050: b504 8c3b cf64 33bd 55cb e6bd bdb0 d9bd
00000060: ac1f 02bd 449e a43c df30 d43c 0f71 cf3c
00000070: b16e 3f3d 996e 90bd b11f debd ea3f fe3d
00000080: 70b4 96bb 4291 523d 9b4d 2f3e ef9e 22bb
00000090: 0342 253c 7ccf d2bd 36d9 58bc c2f9 dcbd
000000a0: 677f 633c d7b1 b9bd 8a3b 4f3d 92f5 993c
000000b0: 292d 663e 4f86 84bd eb29 50bd b524 2fbd
000000c0: 7267 3f3d 90cb 493e 7388 463e 8f75 28bd
000000d0: d46b df3c cae2 e2bd 8846 76bd 6e2c 913d
000000e0: 2653 bbbd 269b 523e 9b7e 923b 6497 353e
000000f0: 554f 0bbe fbce f0bd 3929 9b3d ed9a f13c

out.weight f4 [4, 64]
0.26878893 -0.12865093 0.025326878 0.083477005 -0.068732165 0.10418772 -0.03695066 -0.0628054
0.011625585 0.085792415 0.07095 0.05033262 0.30493826 0.011143066 0.16551463 0.17023651
0.25298232 0.054642085 0.020142011 -0.013425989 0.07844377 0.07659144 0.015487231 -0.20937444
-0.08659713 -0.11108016 -0.044674087 0.13626817 0.04062656 0.14565557 -0.0070756245 0.04413063
0.14247335 0.104434595 -0.034344107 0.066808134 0.0045925183 -0.014821722 0.0821795 -0.0020103802
-0.058574926 0.078909285 0.18232314 0.0829756 0.08105064 -0.013512661 -0.107968666 0.1706561
0.1839917 -0.042440843 -0.11838976 -0.026712688 0.18014073 -0.005039648 0.044161033 0.16557196
-0.10769886 0.21507683 -0.18194373 -0.06958193 -0.019365346 0.04673961 0.13734354 0.087987654
0.027950965 0.10814888 -0.08448103 0.03420817 -0.13155515 0.18160336 0.13937555 -0.03668879
0.22463964 0.110483214 -0.03837593 0.19761722 0.10948209 -0.06899524 -0.05171122 0.10118964
0.102734126 0.18531993 0.046816103 0.23752315 0.010961804 -0.11010478 -0.065086335 -0.056072734
0.055429563 0.16262567 -0.0013822939 -0.037306506 0.11313379 -0.042362735 -0.008277076 -0.09361741
0.12543324 0.03481344 0.12979348 -0.1987518 0.014518835 -0.05411344 -0.21087462 -0.08366963
0.1305108 -0.06936573 -0.18186286 -0.0071466933 0.12666029 -0.07301488 -0.12903509 0.11355822
-0.043265607 0.2033552 0.19324982 -0.07133167 0.12382625 -0.014016117 -0.11883004 -0.15775411
0.071083724 0.14511727 0.13791409 0.12727118 0.0659295 0.0572923 -0.033856712 0.13286923
-0.021526659 0.02940415 0.021413717 0.17524865 -0.00016678746 0.013111372 0.2385475 -0.0039487975
0.1849115 0.19106436 0.120995544 0.20110554 -0.17328638 -0.12235846 0.020180367 0.07891435
-0.061281256 0.08655447 -0.006787155 0.18272169 -0.23601705 0.01893894 -0.09978371 -0.18319908
0.052483227 0.10213018 0.21530282 -0.03558503 0.08761888 0.013436488 -0.25447276 0.10224991
0.018155828 0.021507205 0.07791247 0.11587271 -0.118358634 -0.08605742 0.06589195 0.0344854
0.017860549 -0.11626127 0.20081915 -0.061113212 0.17297292 -0.047183774 0.016253568 -0.03210758
0.03359623 0.13548903 0.0847979 0.122467265 -0.056386106 0.0077352338 0.19604391 0.07786493
0.16182709 0.025546283 -0.022059122 0.21904334 0.092140675 0.030520895 0.13850227 0.040414214
0.013031832 0.046470575 0.099060774 0.007958325 0.2511992 0.15095907 0.15883157 0.0682301
0.05704105 0.19878015 -0.0225709 0.02985934 0.016573694 -0.021822406 -0.15539646 0.012699044
0.024935165 0.07564751 0.04532066 0.07303371 -0.00095455855 0.04174443 -0.028785037 -0.003262234
0.13030873 0.14146154 0.14778082 -0.005521261 0.033575464 0.008716379 0.15850234 0.035568796
0.14573207 0.13324949 0.12708606 0.14228083 0.05945352 -0.02857589 0.04200545 -0.11171277
0.11107236 0.07352048 -0.14050275 -0.09534517 0.12747236 0.13916503 0.15116455 0.10996345
-0.023147147 0.0047353525 0.11219495 -0.02722532 -0.122768715 0.04369226 0.09448388 0.04452411
0.05091015 0.14975984 0.07379655 0.10745446 -0.0923504 0.008581981 -0.10075786 0.15788774
00000000: b49e 893e 12bd 03be 507a cf3c fef5 aa3d
00000010: 73c3 8cbd 5f60 d53d 9359 17bd 1ea0 80bd
00000020: 3d79 3e3c efb3 af3d 3c4e 913d 9429 4e3d
00000030: de20 9c3e 6891 363c ab7c 293e 7b52 2e3e
00000040: e686 813e 61d0 5f3d dc00 a53c aef8 5bbc
00000050: 21a7 a03d f9db 9c3d 28be 7d3c 4166 56be
00000060: d659 b1bd ff7d e3bd 2dfc 36bd e289 0b3e
00000070: 0968 263d bc26 153e a4da e7bb 52c2 343d
00000080: 89e4 113e cee1 d53d 68ac 0cbd b4d2 883d
00000090: d67c 963b cfd6 72bc ba4d a83d 95c0 03bb
000000a0: 43ec 6fbd 319b a13d ebb2 3a3e 1def a93d
000000b0: e1fd a53d 3564 5dbc ad1e ddbd 79c0 2e3e
000000c0: 5268 3c3e 73d6 2dbd 5576 f2bd 91d4 dabc
000000d0: d076 383e a223 a5bb 33e2 343d b28b 293e
000000e0: 3891 dcbd 1a3d 5c3e 754f 3abe f980 8ebd
000000f0: 13a4 9ebc 0972 3f3d c9a3 0c3e df32 b43d
00000100: 6cf9 e43c 297d dd3d 6404 adbd de1d 0c3d
00000110: 65b6 06be 3bf6 393e 77b8 0e3e fc46 16bd
00000120: ef07 663e 0645 e23d 1430 1dbd 2b5c 4a3e
00000130: 2538 e03d 604d 8dbd 25cf 53bd 843c cf3d
00000140: 4566 d23d 82c4 3d3e 3ec2 3f3d 4539 733e
00000150: 2399 333c 9d7e e1bd fc4b 85bd 86ac 65bd
00000160: 1c0a 633d 5887 263e 162e b5ba b5ce 18bd
00000170: b0b2 e73d 8c84 2dbd 939c 07bc 7cba bfbd
00000180: 9271 003e 8a98 0e3d 95e8 043e 9885 4bbe
00000190: 68e0 6d3c 0ea6 5dbd 84ef 57be fc5a abbd
000001a0: a0a4 053e 9f0f 8ebd 423a 3abe cf2e eabb
000001b0: 3cb3 013e d388 95bd c621 04be 3691 e83d
000001c0: 4737 31bd 583c 503e 48e3 453e 5716 92bd
000001d0: 9e98 fd3d dba3 65bc 2a5d f3bd 4b8a 21be
000001e0: 5894 913d 9f99 143e 5a39 0d3e 6053 023e
000001f0: 0c06 873d 55ab 6a3d 56ad 0abd df0e 083e
00000200: ad58 b0bc f9e0 f03c d26b af3c 6274 333e
00000210: abe3 2eb9 14d1 563c cc45 743e ea64 81bb
00000220: 7159 3d3e 60a6 433e 83cc f73d 9cee 4d3e
00000230: fc71 31be 1397 fabd 4c51 a53c d99d a13d
00000240: 0e02 7bbd 7843 b13d c866 debb 651b 3b3e
00000250: 74ae 71be d625 9b3c 675b ccbd 8a98 3bbe
00000260: a7f8 563d a129 d13d 5878 5c3e 9cc1 11bd
00000270: 8771 b33d b724 5c3c 414a 82be 6768 d13d
00000280: 88bb 943c e12f b03c 9390 9f3d ac4e ed3d
00000290: 0366 f2bd df3e b0bd 5cf2 863d 9040 0d3d
000002a0: 4950 923c 641a eebd 89a3 4d3e d951 7abd
000002b0: d01f 313e c643 41bd 3426 853c 3d83 03bd
000002c0: 339c 093d a3bd 0a3e 85aa ad3d 1ed0 fa3d
000002d0: 1ef5 66bd d877 fd3b bcbf 483e a677 9f3d
000002e0: 00b6 253e 7046 d13c 55b5 b4bc e64c 603e
000002f0: 40b4 bc3d f506 fa3c 8ad3 0d3e 6089 253d
00000300: 7783 553c ee57 3e3d 60e0 ca3d a263 023c
00000310: 2e9d 803e 0495 1a3e bea4 223e 39bc 8b3d
00000320: e0a3 693d 068d 4b3e 9ce6 b8bc 939b f43c
00000330: 8ec5 873c e7c4 b2bc 4020 1fbe a70f 503c
00000340: d544 cc3c 15ed 9a3d 28a2 393d b392 953d
00000350: 573b 7aba 35fc 2a3d 99ce ebbc 34cb 55bb
00000360: a76f 053e 4bdb 103e db53 173e b2eb b4bb
00000370: 6d86 093d 25cf 0e3c 704e 223e 96b0 113d
00000380: ca3a 153e 8e72 083e d922 023e 11b2 113e
00000390: 8985 733d fc17 eabc e80d 2c3d aac9 e4bd
000003a0: e879 e33d e891 963d f4df 0fbe 5444 c3bd
000003b0: 1d88 023e 4781 0e3e e1ca 1a3e 8434 e13d
000003c0: 169f bdbc 042b 9b3b 77c6 e53d a207 dfbc
000003d0: 2a6e fbbd a8f6 323d c480 c13d ea5e 363d
000003e0: 2987 503d a55a 193e a522 973d 1511 dc3d
000003f0: 3522 bdbd 709b 0c3c 235a cebd 53ad 213e

out.bias f4 [4]
0.07890781 0.022441493 0.031663273 0.11125917
00000000: 6b9a a13d 39d7 b73c 59b1 013d d9db e33d
